…
To enable them in other operations, rebuild TensorFlow with the appropriate compiler flags.
2024-07-08 20:06:02.711864: I tensorflow/core/common_runtime/gpu/gpu_device.cc:1616] Created device /job:localhost/replica:0/task:0/device:GPU:0 with 9388 MB memory:  -> device: 0, name: NVIDIA GeForce RTX 4070 Ti, pci bus id: 0000:01:00.0, compute capability: 8.9
Model: "sequential"
_________________________________________________________________
 Layer (type)                Output Shape              Param #
=================================================================
 NASNet (Functional)         (None, 11, 11, 4032)      84916818

 global_average_pooling2d (G  (None, 4032)             0
 lobalAveragePooling2D)

 dropout (Dropout)           (None, 4032)              0

 dense (Dense)               (None, 256)               1032448

 batch_normalization (BatchN  (None, 256)              1024
 ormalization)

 dense_1 (Dense)             (None, 4)                 1028

=================================================================
Total params: 85,951,318
Trainable params: 1,033,988
Non-trainable params: 84,917,330
_________________________________________________________________
Epoch 1/100
2024-07-08 20:06:16.916914: I tensorflow/stream_executor/cuda/cuda_dnn.cc:384] Loaded cuDNN version 8100
2024-07-08 20:06:18.137985: I tensorflow/stream_executor/cuda/cuda_blas.cc:1614] TensorFloat-32 will be used for the matrix multiplication. This will only be logged once.
…
