…
To enable them in other operations, rebuild TensorFlow with the appropriate compiler flags.
2024-07-08 18:34:39.533658: I tensorflow/core/common_runtime/gpu/gpu_device.cc:1616] Created device /job:localhost/replica:0/task:0/device:GPU:0 with 9388 MB memory:  -> device: 0, name: NVIDIA GeForce RTX 4070 Ti, pci bus id: 0000:01:00.0, compute capability: 8.9
Model: "sequential"
_________________________________________________________________
 Layer (type)                Output Shape              Param #
=================================================================
 NASNet (Functional)         (None, 11, 11, 4032)      84916818

 dropout (Dropout)           (None, 11, 11, 4032)      0

 flatten (Flatten)           (None, 487872)            0

 batch_normalization (BatchN  (None, 487872)           1951488
 ormalization)

 dense (Dense)               (None, 32)                15611936

 batch_normalization_1 (Batc  (None, 32)               128
 hNormalization)

 activation_260 (Activation)  (None, 32)               0

 dropout_1 (Dropout)         (None, 32)                0

 dense_1 (Dense)             (None, 32)                1056

 batch_normalization_2 (Batc  (None, 32)               128
 hNormalization)

 activation_261 (Activation)  (None, 32)               0

 dropout_2 (Dropout)         (None, 32)                0

 dense_2 (Dense)             (None, 32)                1056

 batch_normalization_3 (Batc  (None, 32)               128
 hNormalization)

 activation_262 (Activation)  (None, 32)               0

 dense_3 (Dense)             (None, 4)                 132

=================================================================
Total params: 102,482,870
Trainable params: 16,590,116
Non-trainable params: 85,892,754
_________________________________________________________________
Epoch 1/25
2024-07-08 18:34:54.660944: I tensorflow/stream_executor/cuda/cuda_dnn.cc:384] Loaded cuDNN version 8100
2024-07-08 18:34:55.825778: I tensorflow/stream_executor/cuda/cuda_blas.cc:1614] TensorFloat-32 will be used for the matrix multiplication. This will only be logged once.
…
